_________________________________________________________________
Layer (type)                 Output Shape              Param #   
=================================================================
conv2d_1 (Conv2D)            (None, 94, 94, 64)        1792      
_________________________________________________________________
conv2d_2 (Conv2D)            (None, 92, 92, 32)        18464     
_________________________________________________________________
conv2d_3 (Conv2D)            (None, 90, 90, 32)        9248      
_________________________________________________________________
max_pooling2d_1 (MaxPooling2 (None, 45, 45, 32)        0         
_________________________________________________________________
conv2d_4 (Conv2D)            (None, 43, 43, 32)        9248      
_________________________________________________________________
conv2d_5 (Conv2D)            (None, 41, 41, 32)        9248      
_________________________________________________________________
max_pooling2d_2 (MaxPooling2 (None, 20, 20, 32)        0         
_________________________________________________________________
conv2d_6 (Conv2D)            (None, 18, 18, 32)        9248      
_________________________________________________________________
conv2d_7 (Conv2D)            (None, 16, 16, 32)        9248      
_________________________________________________________________
max_pooling2d_3 (MaxPooling2 (None, 8, 8, 32)          0         
_________________________________________________________________
dropout_1 (Dropout)          (None, 8, 8, 32)          0         
_________________________________________________________________
global_average_pooling2d_1 ( (None, 32)                0         
_________________________________________________________________
dense_1 (Dense)              (None, 256)               8448      
_________________________________________________________________
dense_2 (Dense)              (None, 2)                 514       
=================================================================
Total params: 75,458
Trainable params: 75,458
Non-trainable params: 0
_________________________________________________________________